…
_path='/pscratch/sd/c/ccardona/datasets/shapenetCore/', categories=['Airplane'], scale_mode='shape_unit', train_batch_size=128, val_batch_size=64, lr=0.0001, weight_decay=5e-05, max_grad_norm=10, end_lr=0.0001, sched_start_epoch=2000, sched_end_epoch=4000, seed=2020, logging=True, log_root='./logs_gen', device='cuda', max_iters=inf, val_freq=1000, test_freq=30000, test_size=400, tag=None)
[2025-08-25 12:03:11,741::train::INFO] Loading datasets...
[2025-08-25 12:03:11,760::train::INFO] Building model...
[2025-08-25 12:03:14,940::train::INFO] GaussianVAE(
  (encoder): PointNetEncoder(
    (conv1): Conv1d(3, 128, kernel_size=(1,), stride=(1,))
    (conv2): Conv1d(128, 128, kernel_size=(1,), stride=(1,))
    (conv3): Conv1d(128, 256, kernel_size=(1,), stride=(1,))
    (conv4): Conv1d(256, 512, kernel_size=(1,), stride=(1,))
    (bn1): BatchNorm1d(128, eps=1e-05, momentum=0.1, affine=True, track_running_stats=True)
    (bn2): BatchNorm1d(128, eps=1e-05, momentum=0.1, affine=True, track_running_stats=True)
    (bn3): BatchNorm1d(256, eps=1e-05, momentum=0.1, affine=True, track_running_stats=True)
    (bn4): BatchNorm1d(512, eps=1e-05, momentum=0.1, affine=True, track_running_stats=True)
    (fc1_m): Linear(in_features=512, out_features=256, bias=True)
    (fc2_m): Linear(in_features=256, out_features=128, bias=True)
    (fc3_m): Linear(in_features=128, out_features=512, bias=True)
    (fc_bn1_m): BatchNorm1d(256, eps=1e-05, momentum=0.1, affine=True, track_running_stats=True)
    (fc_bn2_m): BatchNorm1d(128, eps=1e-05, momentum=0.1, affine=True, track_running_stats=True)
    (fc1_v): Linear(in_features=512, out_features=256, bias=True)
    (fc2_v): Linear(in_features=256, out_features=128, bias=True)
    (fc3_v): Linear(in_features=128, out_features=512, bias=True)
    (fc_bn1_v): BatchNorm1d(256, eps=1e-05, momentum=0.1, affine=True, track_running_stats=True)
    (fc_bn2_v): BatchNorm1d(128, eps=1e-05, momentum=0.1, affine=True, track_running_stats=True)
  )
  (diffusion): DiffusionPoint(
    (net): PointwiseNet(
      (layers): ModuleList(
        (0): ConcatSquashLinear(
          (_layer): Linear(in_features=3, out_features=128, bias=True)
          (_hyper_bias): Linear(in_features=515, out_features=128, bias=False)
          (_hyper_gate): Linear(in_features=515, out_features=128, bias=True)
        )
        (1): ConcatSquashLinear(
          (_layer): Linear(in_features=128, out_features=256, bias=True)
          (_hyper_bias): Linear(in_features=515, out_features=256, bias=False)
          (_hyper_gate): Linear(in_features=515, out_features=256, bias=True)
        )
        (2): ConcatSquashLinear(
          (_layer): Linear(in_features=256, out_features=512, bias=True)
          (_hyper_bias): Linear(in_features=515, out_features=512, bias=False)
          (_hyper_gate): Linear(in_features=515, out_features=512, bias=True)
        )
        (3): ConcatSquashLinear(
          (_layer): Linear(in_features=512, out_features=256, bias=True)
          (_hyper_bias): Linear(in_features=515, out_features=256, bias=False)
          (_hyper_gate): Linear(in_features=515, out_features=256, bias=True)
        )
        (4): ConcatSquashLinear(
          (_layer): Linear(in_features=256, out_features=128, bias=True)
          (_hyper_bias): Linear(in_features=515, out_features=128, bias=False)
          (_hyper_gate): Linear(in_features=515, out_features=128, bias=True)
        )
        (5): ConcatSquashLinear(
          (_layer): Linear(in_features=128, out_features=3, bias=True)
          (_hyper_bias): Linear(in_features=515, out_features=3, bias=False)
          (_hyper_gate): Linear(in_features=515, out_features=3, bias=True)
        )
      )
    )
    (var_sched): VarianceSchedule()
  )
)
[2025-08-25 12:03:23,809::train::INFO] Start training...
[2025-08-25 12:03:27,760::train::INFO] [Train] Iter 0001 | Loss 241.530273 | Grad 4.7490 | KLWeight 0.0010
[2025-08-25 12:03:27,942::train::INFO] [Train] Iter 0001 | Loss 241.418823 | Grad 3.9329 | KLWeight 0.0010
[2025-08-25 12:03:28,108::train::INFO] [Train] Iter 0001 | Loss 241.311890 | Grad 3.2526 | KLWeight 0.0010
…
